model/model.pth (torch, 17216 bytes, 4 tensors)

linear1.weight f4 [256, 11]
0	0xbd19c2ba	-0.03753922
1	0xbebae7f8	-0.36505103
2	0x3e2710b8	0.16314971
3	0xbe518dc5	-0.20464237
4	0xbe933612	-0.2875219
5	0xbe08790b	-0.13327424
6	0xbdf87af5	-0.12132827
7	0x3e178165	0.14795454
8	0x3dc8a804	0.097976714
9	0x3e931d38	0.2873323
10	0x3ddb7ded	0.10717378
11	0x3de03d89	0.10949237
12	0x3e6fac59	0.23405589
13	0x3e70ebc9	0.23527445
14	0x3dd8ab6c	0.10579571
15	0xbd72caf3	-0.05927558
16	0x3d3964f7	0.045262303
17	0xbe65ad3e	-0.22429368
18	0x3e2bc5a7	0.16774617
19	0x3ebb31b6	0.36561364
20	0x3e5cd11d	0.21564145
21	0x3eb976fd	0.36223593
22	0xbeff0c7f	-0.4981422
23	0x3edd3a0f	0.43208358
24	0x3e3a1a81	0.18174173
25	0x3ebcedd1	0.3690019
26	0xbeda6651	-0.42656186
27	0x3eabee01	0.3358002
28	0x3ea20457	0.31643936
29	0xbd98997b	-0.07451149
30	0xbf030122	-0.51173604
31	0xbcdc302b	-0.026878437
32	0x3e47eaaa	0.19523111
33	0x3d9533df	0.07285284
34	0xbe041d99	-0.12901916
35	0x3eaf7665	0.34270015
36	0x3e8a4734	0.2700745
37	0xbf019f14	-0.5063336
38	0xbf159367	-0.58428043
39	0x3ea39141	0.31946757
40	0x3e03f5c8	0.12886727
41	0xbeef2ec0	-0.46715355
42	0xbef3e047	-0.47632048
43	0xbe419413	-0.18904142
44	0x3e206542	0.15663627
45	0xbf024a66	-0.50894773
46	0x3ec95808	0.39324975
47	0xbec64eb7	-0.3873193
48	0xbe00d810	-0.12582421
49	0xbe8a87ac	-0.27056634
50	0xbe89850a	-0.26859313
51	0x3e1e2a20	0.15445757
52	0xbe9d9353	-0.30776462
53	0xbc20dd3f	-0.009818374
54	0x3e887800	0.26654053
55	0xbe4c69de	-0.1996226
56	0xbdd84266	-0.105595395
57	0x3efdeeb9	0.49596193
58	0x3e8d6c81	0.27621844
59	0xbe8dbd8f	-0.27683684
60	0xbcafc706	-0.021457206
61	0xbe419e78	-0.18908107
62	0xba122065	-0.0005574285
63	0x3dc1649d	0.094430186
64	0x3e89141b	0.26773152
65	0xbec23d3b	-0.3793734
66	0xbcdd930f	-0.027047662
67	0x3c8d2e20	0.017233908
68	0x3edbb412	0.4291082
69	0x3d2d8706	0.042365097
70	0x3df3a7b1	0.11897219
71	0xbf2c0492	-0.67194474
72	0x3e21487c	0.15750307
73	0x3e846cae	0.25864166
74	0xbe97d814	-0.29657042
75	0xbe9b55b6	-0.3033883
76	0xbed64037	-0.41845867
77	0x3b07470e	0.0020641717
78	0xbe3f115c	-0.18658966
79	0x3ee181c2	0.4404431
80	0x3da30256	0.0795943
81	0x3d5ca554	0.053868607
82	0x3d82f1f8	0.06393808
83	0x3e24d436	0.16096577
84	0x3e866fd6	0.262572
85	0x3e2da62d	0.16957922
86	0x3ea8c6bf	0.3296413
87	0x3e7cd1cd	0.24689408
88	0x3ce34f19	0.027747678
89	0x3bfb61d2	0.007671573
90	0xbe14eafc	-0.14542764
91	0xbe93b385	-0.288479
92	0xbb87ed97	-0.004148196
93	0x3ecb9d04	0.3976823
94	0xbe5b1273	-0.21393757
95	0x3ea4f95e	0.32221502
96	0xbd2dd8a9	-0.04244295
97	0xbec8fbc1	-0.39254573
98	0x3e8fd468	0.2809174
99	0x3c4fc4f9	0.012681239
100	0xbcf40e94	-0.029792108
101	0x3ed94b56	0.4244029
102	0xbe2cef83	-0.16888241
103	0x3d17de89	0.03707746
104	0x3da82a7e	0.0821123
105	0xbe14b394	-0.14521629
106	0x3ea4e110	0.3220296
107	0x3e267c3f	0.16258334
108	0x3e319d4a	0.17345157
109	0x3ec09fb9	0.3762186
110	0x3e772c32	0.24137953
111	0xbda2f1bc	-0.079562634
112	0x3f03534c	0.51298976
113	0xbcfd31e6	-0.030907582
114	0xbe378357	-0.17921196
115	0xbdd84156	-0.10559337
116	0xbd3fc010	-0.046814024
117	0x3cfd9e0f	0.030959157
118	0xbd1be454	-0.038059548
119	0x3dcc3f99	0.09973068
120	0xbd5f8c1d	-0.05457698
121	0xbd65dbf8	-0.05611798
122	0x3d91433e	0.070929036
123	0xbdab303a	-0.08358808
124	0xbdb2a013	-0.08721938
125	0x3d2d4505	0.04230215
126	0x3ce4258d	0.027849937
127	0x3f0a4108	0.5400548
128	0xbe81b32e	-0.25332016
129	0x3e694bd5	0.22782834
130	0x3e637c48	0.22215378
131	0xbe8eabec	-0.2786554
132	0x3e56cede	0.20977351
133	0x3da2ba7f	0.079457276
134	0x3dd066d8	0.10175866
135	0xbdb41685	-0.08793358
136	0xbe906ec9	-0.28209522
137	0xbe4db3f3	-0.20088176
138	0xbeab50f7	-0.3346021
139	0x3eb8f395	0.36123338
140	0x3ee46cd5	0.44614282
141	0x3ec3562b	0.38151678
142	0x3eed1c29	0.46310547
143	0xbe04df41	-0.1297579
144	0x3f014ec8	0.50510836
145	0x3e0046cd	0.12527008
146	0xbde673aa	-0.1125253
147	0x3d1a4fb1	0.037673656
148	0xbe6c8883	-0.2309895
149	0x3e143752	0.14474228
150	0x3d6957a1	0.056968335
151	0x3e8ab52a	0.27091342
152	0x3dafd6f4	0.08585921
153	0x3ce0daeb	0.027448138
154	0xbe166f0e	-0.14690802
155	0xbea5f16e	-0.3241076
156	0xbe0fdba8	-0.14048636
157	0x3eefc492	0.4682966
158	0xbecf79c1	-0.40522578
159	0x3eacf0f6	0.3377759
160	0x3ed9be14	0.4252783
161	0x3e36db8d	0.1785719
162	0xbf20c749	-0.62804085
163	0xbd32045c	-0.04346119
164	0x3d84b045	0.06478933
165	0xbc6b93b0	-0.014378473
166	0x3ee43b68	0.44576573
167	0x3e93320c	0.2874912
168	0xbdc0ea2e	-0.09419666
169	0xbe9f720d	-0.311417
170	0xbdb79857	-0.089646034
171	0xbe551545	-0.20808895
172	0x3e1a3c28	0.1506201
173	0x3c7d6550	0.015466049
174	0x3e3a883c	0.18216032
175	0x3e22f5cc	0.15914077
176	0x3da38d03	0.0798588
177	0x3d834c2c	0.06411013
178	0x3e466228	0.19373381
179	0xbe789862	-0.2427688
180	0xbe8477b0	-0.25872564
181	0xbeb44673	-0.35209998
182	0xbe018e4f	-0.12651943
183	0x3de84940	0.11342096
184	0xbd766f15	-0.06016453
185	0x3e06ed36	0.13176426
186	0xbdf649fe	-0.12025832
187	0xbcca1346	-0.024667393
188	0x3eb1f763	0.34759054
189	0xbf0e2e8c	-0.55539775
190	0x3e81fc2b	0.253877
191	0xbe9142cc	-0.28371274
192	0x3d6be412	0.05759055
193	0xbe13d505	-0.14436729
194	0xbddf8690	-0.10914338
195	0x3e3030a2	0.17206052
196	0xbc9efa5a	-0.019406486
197	0x3ea2b555	0.3177897
198	0xbaca4394	-0.0015431517
199	0x3e83d6a1	0.25749686
200	0xbd98aa7d	-0.07454393
201	0xbe99fb0f	-0.30074355
202	0x3e0c9952	0.13730362
203	0xbec976d7	-0.3934848
204	0x3ec1d9d7	0.3786151
205	0xbea8e7e1	-0.3298941
206	0xbdfdfa25	-0.12401227
207	0x3e9a23a9	0.30105332
208	0xbec3c823	-0.3823863
209	0x3cb796f6	0.022410851
210	0xbe913911	-0.2836385
211	0x3efe99f4	0.49726832
212	0x3eb9b8df	0.36273858
213	0x3e1ded76	0.15422615
214	0xbea98ffc	-0.33117664
215	0x3e17f5e2	0.1483989
216	0x3ee2c4df	0.44290826
217	0x3cc90f55	0.024543444
218	0x3cc7f677	0.024409516
219	0xbe7d5e6b	-0.24743049
220	0xbe94630a	-0.2898181
221	0xbd0df25c	-0.03465496
222	0x3d271fe8	0.040801913
223	0xbe3af4c1	-0.18257429
224	0x3ec9d060	0.3941679
225	0xbe56995f	-0.20956944
226	0xbea09c9c	-0.31369483
227	0xbf1d9a95	-0.61564
228	0xbe9162a5	-0.28395572
229	0x3eac5046	0.33654994
230	0xbe814740	-0.25249672
231	0x3ea49cc4	0.32150853
232	0xbd2b7f6c	-0.041869566
233	0x3d155e0e	0.03646665
234	0xbef4711b	-0.47742543
235	0xbe72437d	-0.23658557
236	0x3ec214c0	0.37906456
237	0x3e8ad534	0.27115786
238	0x3eaac080	0.3334999
239	0x3e12cd9f	0.1433625
240	0xbef5c65d	-0.48002902
241	0xbebf8043	-0.37402543
242	0xbe3591cd	-0.177314
243	0xbe43f8b0	-0.19137836
244	0x3dec11ed	0.115268566
245	0x3d86f818	0.06590289
246	0xbe8168b0	-0.25275183
247	0xbd0e1791	-0.034690443
248	0xbdda044a	-0.10645349
249	0x3e9653b1	0.29360726
250	0x3ee63a57	0.44966385
251	0x3e86847d	0.26272956
252	0x3f0081a7	0.50197834
253	0xbedc9397	-0.43081352
254	0x3ddccc73	0.10781183
255	0x3df544d4	0.119760185

linear1.bias f4 [256]
0	0xbd3eaacb	-0.0465496
1	0xbebd514a	-0.3697608
2	0x3e3b85be	0.18312737
3	0x3e1f9b72	0.15586641
4	0x3d856079	0.06512541
5	0x3cdb19a7	0.02674563
6	0x3e019baf	0.12657045
7	0xbed30815	-0.41217104
8	0xbd27cf72	-0.04096932
9	0xbe7cfc60	-0.24705648
10	0x3d1d3e48	0.038389474
11	0xbe9e27fd	-0.30889884
12	0xbe81d5cb	-0.25358424
13	0xbdaacceb	-0.08339866
14	0x3e898455	0.26858774
15	0x3ced3611	0.028956445
16	0xbec8f335	-0.39248052
17	0xbe436425	-0.19081171
18	0xbcbca85e	-0.023029502
19	0xbe5325af	-0.20619844
20	0xbe4d5e51	-0.2005551
21	0x3de24b60	0.11049533
22	0xbeac1fd2	-0.33618027
23	0x3cd79cfb	0.026319971
24	0xbe87b636	-0.26506203
25	0xbe3bf70e	-0.18355963
26	0xbe50abe6	-0.20378074
27	0xbd830752	-0.063978806
28	0xbe64eff5	-0.22357161
29	0x3ed6ba9a	0.4193924
30	0xbd858b5b	-0.065207206
31	0x3e245542	0.16048148
32	0x3e210246	0.15723523
33	0xbd6c4b58	-0.05768904
34	0x3ea84468	0.3286469
35	0xbe4f8f90	-0.20269608
36	0xbeb7a523	-0.35868177
37	0x3dfcd72c	0.12345728
38	0x3dce5a25	0.100757875
39	0xbefa8486	-0.48929232
40	0xbc733032	-0.014843034
41	0xbe59947b	-0.21248047
42	0xbe49d147	-0.19708739
43	0xbe25a2b1	-0.16175343
44	0xbe063e01	-0.1310959
45	0x3f2809d0	0.6563997
46	0xbe2a9508	-0.16658413
47	0x3d5a6ff0	0.05332941
48	0x3d96b8a8	0.07359439
49	0xbe780a53	-0.24222688
50	0x3f0782ad	0.5293377
51	0xbde5f48a	-0.11228283
52	0x3e8c6426	0.27420157
53	0xbe804c58	-0.25058246
54	0x3e05f87d	0.13083072
55	0xbd59ae7f	-0.053144928
56	0x3e3c70c4	0.18402392
57	0xbd30086b	-0.042976778
58	0x3f1dc799	0.61632687
59	0xbe1827c4	-0.1485892
60	0xbe66483a	-0.2248849
61	0xbdcfac14	-0.10140243
62	0xbe1d92b6	-0.15387997
63	0x3ea2dd29	0.31809357
64	0xbe9c24b5	-0.30496755
65	0xbe248290	-0.1606543
66	0x3e241e8e	0.1602728
67	0xbe757c58	-0.23973215
68	0xbec1d3a3	-0.37856779
69	0xbda2753d	-0.07932518
70	0xbdde6c32	-0.1086048
71	0x3e472ea6	0.19451389
72	0xbc4f174d	-0.012639833
73	0xbea06602	-0.31327826
74	0x3c7b2de9	0.01533077
75	0xbe4961e2	-0.19666246
76	0x3d93359d	0.0718796
77	0xbd14edee	-0.03635972
78	0xbe4feb50	-0.20304608
79	0xbe1ad2a7	-0.1511942
80	0xbde4b5c6	-0.11167483
81	0xbbcd6d47	-0.0062691304
82	0xbe451875	-0.19247611
83	0x3f885d76	1.0653522
84	0xbcc2ac14	-0.023763694
85	0x3b23e3c3	0.0025007583
86	0x3ba184ac	0.004929146
87	0xbe0a734d	-0.13520546
88	0x3cf763cb	0.030198952
89	0xbeb65568	-0.35612035
90	0xbdd2bb80	-0.10289669
91	0xbe6d88a7	-0.2319666
92	0xbd97d2bd	-0.07413242
93	0xbd52f4ff	-0.051503178
94	0xbe218813	-0.15774564
95	0xbe290c01	-0.16508485
96	0xbd073a50	-0.033014596
97	0xbe7895b4	-0.24275857
98	0xbe953052	-0.29138428
99	0xbe2ce468	-0.16884005
100	0xbdb2572a	-0.087080315
101	0xbdd39120	-0.10330415
102	0x3e2cd043	0.1687632
103	0xbe9fc238	-0.31202865
104	0xbe73d097	-0.2381004
105	0xbd238e64	-0.039930716
106	0xbebdf77a	-0.37102872
107	0xbe81a9ff	-0.2532501
108	0x3f0d51b7	0.5520281
109	0xbe3f54f6	-0.18684754
110	0x3e51488f	0.20437835
111	0xbe375a80	-0.17905617
112	0xbe14269d	-0.14467855
113	0x3e346a60	0.17618704
114	0xbe900328	-0.28127408
115	0xbe1dd7a9	-0.15414299
116	0xbe13f696	-0.14449534
117	0xbe068c49	-0.13139452
118	0xbe7f378d	-0.24923535
119	0xbe9d00c0	-0.30664635
120	0xbe96daa6	-0.2946369
121	0xbd88f812	-0.06687941
122	0x3d50631e	0.050875776
123	0xbe4498dd	-0.19198938
124	0x3cbfe1e5	0.023423145
125	0xbe81e1ac	-0.25367486
126	0xbeaf2e33	-0.34214935
127	0xbc432665	-0.011911009
128	0xbe56e29d	-0.20984884
129	0xbea559d6	-0.32295102
130	0x3cca759b	0.024714282
131	0xbd0b6106	-0.034028076
132	0x3e0e20b1	0.13879658
133	0xbdb4bfea	-0.08825667
134	0x3bc87fd5	0.0061187544
135	0x3d2dc315	0.042422373
136	0xbe715943	-0.23569207
137	0xbc3e8e5e	-0.011630623
138	0xbc6e058e	-0.0145276915
139	0xbc368834	-0.011140872
140	0xbe4b0b6c	-0.19828576
141	0x3da106fd	0.07862661
142	0xbe26337d	-0.16230579
143	0x3f3f15ee	0.7464284
144	0x3d43bc55	0.04778703
145	0x3d7e8bc4	0.06214501
146	0xbd494c7a	-0.0491452
147	0xbdb0a267	-0.08624726
148	0x3dc75e4d	0.09734783
149	0xbc872dc2	-0.016501311
150	0xbd2b4408	-0.041812927
151	0xbe711f79	-0.23547162
152	0x3e21cbd7	0.15800415
153	0xbe0d8ec8	-0.13823998
154	0x3ef5b832	0.47992092
155	0x3e739d33	0.23790435
156	0x3df29de4	0.118465215
157	0x3e3637d2	0.17794731
158	0xbd65d988	-0.056115657
159	0xbe1c6a4c	-0.15274924
160	0xbe380f68	-0.17974627
161	0xbe08fb04	-0.13377005
162	0x3c8a0483	0.016847854
163	0x3d250c52	0.040294953
164	0xbe557aa6	-0.20847568
165	0x3e9bed24	0.3045436
166	0xbe078c6d	-0.13237162
167	0x3edeba96	0.4350173
168	0xbeaf549e	-0.34244245
169	0xbd62f1d7	-0.055406418
170	0xbecfa598	-0.40556026
171	0x3dc7ed9e	0.09762119
172	0xbe6b3794	-0.2297042
173	0xbd0b0375	-0.033938844
174	0xbc9c6cf2	-0.019094918
175	0x3d2da24b	0.042391103
176	0xbe29b90e	-0.16574499
177	0xbedb43db	-0.42825207
178	0x3deb2bb4	0.11482945
179	0xbc0e786a	-0.008695701
180	0x3e93e63f	0.288866
181	0xbddb95e3	-0.10721948
182	0xbe19280b	-0.14956681
183	0x3f024908	0.50892687
184	0x3e443ffe	0.19165036
185	0xbd68a814	-0.056800917
186	0x3c8a7c4c	0.016904972
187	0xbe05ac5d	-0.13054033
188	0x3ccbb6b1	0.024867387
189	0x3bbbe703	0.005734326
190	0xbe79f3f5	-0.24409468
191	0xbe785f31	-0.24255063
192	0xbcb0db7f	-0.021589039
193	0xbe2aeb46	-0.16691312
194	0xbd98cf07	-0.07461362
195	0x3e69ee5d	0.22844835
196	0x3e9d04c9	0.30667713
197	0xbb11c215	-0.0022240926
198	0x3e2ad48e	0.16682646
199	0x3c5ec355	0.0135963755
200	0x3bcac033	0.0061874627
201	0xbed4b051	-0.4154077
202	0xbd786169	-0.060639773
203	0xbd1ecdfb	-0.038770657
204	0xbe865743	-0.2623845
205	0xbc403fb3	-0.011733937
206	0xbe0a8db4	-0.13530618
207	0x3e78f499	0.24312057
208	0xbdfae5fa	-0.12250896
209	0xbe8a20c8	-0.26978135
210	0xbce0c8de	-0.027439531
211	0xbd0231dc	-0.03178583
212	0xbdb4c048	-0.08825737
213	0xbe18d1ea	-0.14923826
214	0xbe59ba44	-0.21262461
215	0xbe8cef22	-0.27526194
216	0xbdd2a20e	-0.10284816
217	0xbd50a29b	-0.050936323
218	0xbdf0054b	-0.117197596
219	0xbe5f13ff	-0.21784972
220	0xbe96b818	-0.29437327
221	0xbe1da114	-0.15393478
222	0x3d3a344e	0.045460038
223	0xbeba931b	-0.36440358
224	0xbde31e1f	-0.110897295
225	0xbe56c807	-0.20974742
226	0xbe4ae589	-0.19814123
227	0x3e5e57b1	0.21713139
228	0xbcb542d6	-0.022126596
229	0xbe4b1fb6	-0.19836316
230	0xbe4fa1a4	-0.20276505
231	0xbe7c1048	-0.24615586
232	0xbe2d57a3	-0.16927962
233	0x3ea6de27	0.32591364
234	0xbe9db168	-0.30799413
235	0xbd47c5d8	-0.048772663
236	0x3d6177a9	0.055045757
237	0xbded5676	-0.11588757
238	0xbd3ef2b6	-0.046618186
239	0x3ea594a3	0.32339963
240	0xbea3cc84	-0.3199197
241	0xbdefe8fb	-0.117143594
242	0xbe04e1cd	-0.12976761
243	0xbe72551d	-0.2366528
244	0xbe93507a	-0.28772336
245	0xbd90da00	-0.0707283
246	0xbd527fe6	-0.051391505
247	0xbf0a9b3e	-0.5414313
248	0x3e2340cd	0.15942688
249	0x3e971bfe	0.29513544
250	0xbebee376	-0.37282914
251	0xbe5ff2f6	-0.21870026
252	0xbeb948b1	-0.36188272
253	0xbe42f283	-0.19037823
254	0xbe7a132d	-0.24421377
255	0x3ea6d16a	0.32581645

linear2.weight f4 [3, 256]
0	0xbb12b794	-0.0022387253
1	0xbddcf7d4	-0.10789457
2	0x3ebecdc4	0.37266362
3	0x3ea79d68	0.3273728
4	0xbcbd88e6	-0.023136567
5	0x3e1458ea	0.14487043
6	0x3e5a50fd	0.21319957
7	0xbd32dc8b	-0.043667357
8	0xbee91232	-0.45521694
9	0xbe11eed9	-0.1425127
10	0x3d0c8dba	0.03431485
11	0xbeed5c71	-0.4635959
12	0xbe884e06	-0.26622027
13	0x3d84508f	0.06460678
14	0x3e96b6c5	0.29436317
15	0x3c41083a	0.0117817465
16	0x3d088ee9	0.033339415
17	0xbe51ee41	-0.20501043
18	0xbe5e7e49	-0.21727861
19	0x3e4d8a9f	0.20072411
20	0xbe94aa9b	-0.29036412
21	0xbe8549aa	-0.26032764
22	0xbe3ff20f	-0.18744682
23	0x3e9df776	0.3085286
24	0xbe2eb78d	-0.17062207
25	0xbf16e28b	-0.5893943
26	0x3c830f5b	0.015998533
27	0xbe071cac	-0.13194531
28	0xbe8ea695	-0.27861467
29	0x3e4b33b6	0.19843945
30	0xbeb6fe9a	-0.3574112
31	0xbe5face1	-0.21843292
32	0x3f03f685	0.51548034
33	0xbca6021c	-0.020264678
34	0x3edb8dcc	0.4288162
35	0x3d07e80a	0.033180274
36	0xbedc05fa	-0.4297331
37	0x3db0b034	0.08627358
38	0xbca1bbff	-0.019742964
39	0xbe486c9f	-0.19572686
40	0xbeee2748	-0.46514344
41	0xbee11170	-0.43958616
42	0xbe1db127	-0.1539961
43	0x3c9db8b7	0.019253118
44	0xbe5cd1a0	-0.2156434
45	0x3eb13780	0.34612656
46	0x3da2c9f7	0.07948678
47	0x3eada384	0.33913815
48	0xbe37e676	-0.17959008
49	0xbe131d79	-0.14366712
50	0x3e5337f0	0.20626807
51	0xbe97b353	-0.29629
52	0x3de49bd6	0.11162536
53	0xbb437700	-0.0029825568
54	0x3dd55836	0.104172155
55	0x3b1ebbb4	0.0024220766
56	0x3e9ada85	0.30244842
57	0x3da5e657	0.081005745
58	0x3ea6f529	0.32608917
59	0xbda3741f	-0.07981133
60	0xbe9e3a56	-0.30903882
61	0x3e27ae10	0.16374993
62	0x3d77336b	0.06035177
63	0x3e0d32b6	0.13788876
64	0xbc89df3d	-0.016830081
65	0xbc8bedbf	-0.01708114
66	0x3ee1d391	0.44106725
67	0xbd9d360d	-0.07676325
68	0xbcec7142	-0.0288626
69	0xbe984ff8	-0.2974851
70	0xbbe78320	-0.007065192
71	0x3dce9f87	0.10089021
72	0xbd47a3d8	-0.048740238
73	0xbe9e8995	-0.30964342
74	0xbe0e9043	-0.13922219
75	0xbe2f1185	-0.17096527
76	0xbe9e3415	-0.3089911
77	0xbe473e26	-0.19457301
78	0xbd80728a	-0.062718466
79	0xbec1de80	-0.37865067
80	0x3d237a10	0.03991133
81	0x3e55e065	0.20886381
82	0xbe0255b0	-0.12728
83	0x3e46d408	0.19416821
84	0x3de9c8e4	0.1141527
85	0xbec3402e	-0.38134903
86	0xbf3aa6ff	-0.72911066
87	0xbf111694	-0.56675076
88	0xbf17c993	-0.5929195
89	0xbe0ab7ea	-0.1354672
90	0x3e5aea7f	0.21378516
91	0x3d10a556	0.035313927
92	0x3e555e0f	0.20836662
93	0xbf063903	-0.5243074
94	0xbf15215e	-0.5825404
95	0xbe93d24b	-0.28871378
96	0xbf22a6ae	-0.63535583
97	0xbe5e19fc	-0.216896
98	0xbdab0670	-0.08350837
99	0xbd7997d3	-0.060935806
100	0x3dde870c	0.10865602
101	0xbe1b2995	-0.15152581
102	0x3c981a8b	0.018567344
103	0xbee456d2	-0.4459749
104	0xbe90cc3f	-0.28280827
105	0xbe089703	-0.13338856
106	0xbe76628e	-0.24061033
107	0x3bdc7f7d	0.006729065
108	0x3e6f5542	0.23372367
109	0x3ca96451	0.020677717
110	0x3eaf8a13	0.3428503
111	0x3cee0093	0.029053008
112	0xbee0d65c	-0.43913543
113	0xbe821ef0	-0.25414228
114	0xbe9b976d	-0.30388966
115	0xbf11aad7	-0.56901306
116	0xbd7caab4	-0.061686233
117	0x3cce961e	0.025218066
118	0xbd2b7052	-0.041855164
119	0xbe808ab3	-0.2510582
120	0xbe754c7d	-0.23954959
121	0xbdc9eaae	-0.09859215
122	0x3f0be331	0.5464354
123	0x3c1eed22	0.009700092
124	0xbe19a614	-0.1500476
125	0x3c186aaf	0.009302779
126	0xbe51f4b9	-0.2050351
127	0xbdea94aa	-0.11454137
128	0x3bad3309	0.005285625
129	0xbe4bccb9	-0.19902314
130	0x3dc57b75	0.09642688
131	0x3e9b912e	0.303842
132	0x3f07858d	0.5293816
133	0x3f05b288	0.5222554
134	0xbebd1fef	-0.36938426
135	0x3e38afa2	0.18035749
136	0x3d272d9c	0.04081498
137	0x3d476de5	0.048688788
138	0xbaeb1f84	-0.001793847
139	0x3ea44006	0.32080096
140	0xbd590680	-0.052984715
141	0x3daec59d	0.085337855
142	0xbe6c092d	-0.23050375
143	0x3e5822e7	0.21107064
144	0xbefa279e	-0.4885835
145	0x3cead45a	0.02866571
146	0x3e35f681	0.17769815
147	0x3e939cdc	0.28830612
148	0x3e1d2830	0.15347362
149	0xbc53cb38	-0.012926869
150	0xbe95e4e2	-0.29276186
151	0xbd66c632	-0.056341358
152	0x3ec0b9e4	0.37641823
153	0xbc8179bd	-0.01580512
154	0x3ede25d0	0.43388224
155	0x3eadbc77	0.3393285
156	0x3ef6cbf4	0.4820248
157	0xbc839a96	-0.016064923
158	0x3d361a25	0.044458527
159	0xbeacc824	-0.33746445
160	0x3bed28a9	0.007237513
161	0xbf4276a3	-0.75962275
162	0x3d401532	0.046895213
163	0x3eb9060a	0.3613742
164	0xbdc885bd	-0.097911336
165	0x3ea42910	0.32062578
166	0xbcd5bfac	-0.026092373
167	0x3e6a67de	0.22891185
168	0xbd1c697f	-0.038186546
169	0x3dc40932	0.09572066
170	0x3b8f1589	0.004366581
171	0xbca373a2	-0.019952599
172	0x3dccc67a	0.09998794
173	0x3cb786a4	0.022403069
174	0xbf449d3f	-0.7680244
175	0xbe896393	-0.26833782
176	0xbe996689	-0.2996104
177	0xbd774a87	-0.06037381
178	0x3de69293	0.112584256
179	0x3eb5b600	0.35490417
180	0x3df686c5	0.12037424
181	0xbe48fc50	-0.196275
182	0xbd6bda86	-0.057581447
183	0x3f106175	0.5639871
184	0x3dbb7f37	0.09155124
185	0x3ef7e6a5	0.48418155
186	0x3c340ccb	0.010989378
187	0xbe5e9e62	-0.21740106
188	0xbe0439f6	-0.12912735
189	0x3c8a42ed	0.016877616
190	0xbcca27e0	-0.024677217
191	0xbe7a2279	-0.24427213
192	0xbe12683d	-0.14297576
193	0xbf2c15ff	-0.67221063
194	0x3e9bae6a	0.30406505
195	0x3ecb5f30	0.3972106
196	0x3e6996d9	0.2281145
197	0x3e9c4fa5	0.30529514
198	0x3d1c86a3	0.038214337
199	0xbedfa3d3	-0.43679675
200	0xbe7283e9	-0.23683132
201	0xbe1ac66f	-0.15114759
202	0xbd696c5d	-0.05698811
203	0x3cdf41cc	0.027253054
204	0xbecad684	-0.39616787
205	0xbec65929	-0.387399
206	0xbd5f7983	-0.054559242
207	0x3f074dd1	0.52853113
208	0xbdcf7dcf	-0.10131418
209	0xbe9180b9	-0.2841852
210	0x3ed2b734	0.41155398
211	0xbea8ebea	-0.32992488
212	0xbdc9ec22	-0.09859492
213	0xbe81e8a3	-0.253728
214	0xbe2a0b23	-0.16605811
215	0x3dbf9902	0.09355356
216	0xbee388af	-0.4444022
217	0x3e8da26f	0.2766299
218	0xbe433bbe	-0.19065759
219	0x3e8808ec	0.26569307
220	0xbf0c427a	-0.54788935
221	0xbe1f638a	-0.15565315
222	0xbe9c3a92	-0.30513436
223	0xbe1504d1	-0.14552619
224	0xbeccf656	-0.4003169
225	0x3bdfa7a0	0.0068254024
226	0x3dc3a254	0.09552446
227	0x3e308ed7	0.17241989
228	0xbdb5edb7	-0.08883231
229	0xbeda43de	-0.42629904
230	0xbe2dfc32	-0.16990736
231	0xbe2e7a39	-0.17038812
232	0xbe35c512	-0.17750958
233	0x3e2ea436	0.17054829
234	0xbede686f	-0.43439052
235	0xbd91350e	-0.070901975
236	0x3dae2cf8	0.08504671
237	0x3c71ac78	0.014750592
238	0xbdb7179e	-0.089400515
239	0x3e928f9b	0.28625187
240	0xbde9459f	-0.11390232
241	0xbf0fe6b2	-0.5621139
242	0xbd0a6f94	-0.033797815
243	0xbdb1b430	-0.08676946
244	0xbe7b259e	-0.24526069
245	0xbe91312e	-0.28357834
246	0xbe87b7bd	-0.2650737
247	0xbea1f1c2	-0.3162976
248	0x3dc590bc	0.096467465
249	0x3e73b0f1	0.23797967
250	0x3c7a39ae	0.015272541
251	0xbeaa3a9a	-0.33247834
252	0xbea57ba6	-0.323209
253	0xbf2884f0	-0.65827847
254	0xbeab1bfe	-0.33419794
255	0x3dd0684a	0.101761416

linear2.bias f4 [3]
0	0x3e927c5f	0.28610513
1	0x3dcd3ffd	0.100219704
2	0x3dc96a05	0.09834675
